…
a translation (from −5pixels to 5pixels), a zoom (with a ratio from 0.75to1.25) and a
shearing (from −10◦to10◦)
•Random perspective transformation: apply a scale distortion with a certain probability
to simulate 3D transformations. The scale distortion we have chosen is 0.5, and it is applied
to the image with a probability of 50%
19A.3 RAEs training and architectures
A.3.1 RAEs architectures
For the encoder, qϕ(z|x), and decoder, pθ(x|z), we leverage similar architectures than those proposed
in Ghosh et al. [52]. In Table 1 we detail the exact architecture of the RAE encoder and decoder.
Network Layer Input Shape Output Shape Param #
Conv2d [1, 48, 48] [16, 24, 24] 256
BatchNorm2d [16, 24, 24] [16, 24, 24] 32
ReLU [16, 24, 24] [16, 24, 24] –
Conv2d [16, 24, 24] [32, 12, 12] 8,192
BatchNorm2d [32, 12, 12] [32, 12, 12] 64
ReLU [32, 12, 12] [32, 12, 12] –
Conv2d [32, 12, 12] [64, 7, 7] 32,768
Encoder : qϕ(z|x) BatchNorm2d [64, 7, 7] [64, 7, 7] 128
ReLU [64, 7, 7] [64, 7, 7] –
Conv2d [64, 7, 7] [128, 3, 3] 131,072
BatchNorm2d [128, 3, 3] [128, 3, 3] 256
ReLU [128, 3, 3] [128, 3, 3] –
Linear [128, 3, 3] [ d] 147,584 (d= 128)
ConvTranspose2d [ d, 1, 1] [128, 6, 6] 1,179,648 (d= 128)
BatchNorm2d [128, 6, 6] [128, 6, 6] 256
ReLU [128, 6, 6] [128, 6, 6] –
ConvTranspose2d [128, 6, 6] [64, 12, 12] 131,072
BatchNorm2d [64, 12, 12] [64, 12, 12] 128
ReLU [64, 12, 12] [64, 12, 12] –
ConvTranspose2d [64, 12, 12] [32, 24, 24] 32,768
BatchNorm2d [32, 24, 24] [32, 24, 24] 64
Decoder : pθ(x|z) ReLU [32, 24, 24] [32, 24, 24] –
ConvTranspose2d [32, 24, 24] [16, 48, 48] 8,192
BatchNorm2d [16, 48, 48] [16, 48, 48] 32
ReLU [16, 48, 48] [16, 48, 48] –
ZeroPad2d [16, 48, 48] [16, 49, 49] –
Conv2d [16, 49, 49] [1, 48, 48] 257
Sigmoid [1, 48, 48] [1, 48, 48] –
Table 1: The base architecture for all the autoencoders.
Note that for Omniglot and QuickDraw, we have chosen different latent-space sizes (denoted d). For
Omniglot d= 64 and for QuickDraw, d= 128 .
A.3.2 RAEs training details
We train the model using the Mean Squared Error loss with a batch size of 128 for the reconstruction,
along with different regularizations to study its effects. For both datasets, we use the Adam opti-
…
