…
E Experiments on nonlinear, multilayer GANs on MNIST
In this section we provide details for the experiments on nonlinear, multilayer GANs. One of these exper-
iments is discussed in Section 5and the other is an additional experiment which is not in the main paper.
The details here are relevant to both experiments.
We train a gradient penalized Wasserstein GAN (WGAN-GP) ( Gulrajani et al. ,2017) on MNIST ( LeCun
et al. ,1998). The architecture output directly from PyTorch is shown below with the latent dimensionality
changed to k, as it varies in our experiments:
Generator(
(model): Sequential(
(0): Linear(in_features=k, out_features=128, bias=True)
(1): LeakyReLU(negative_slope=0.2, inplace)
(2): Linear(in_features=128, out_features=256, bias=True)
(3): BatchNorm1d(256, eps=0.8, momentum=0.1, affine=True, track_running_stats=True)
(4): LeakyReLU(negative_slope=0.2, inplace)
(5): Linear(in_features=256, out_features=512, bias=True)
(6): BatchNorm1d(512, eps=0.8, momentum=0.1, affine=True, track_running_stats=True)
(7): LeakyReLU(negative_slope=0.2, inplace)
(8): Linear(in_features=512, out_features=1024, bias=True)
(9): BatchNorm1d(1024, eps=0.8, momentum=0.1, affine=True, track_running_stats=True)
(10): LeakyReLU(negative_slope=0.2, inplace)
(11): Linear(in_features=1024, out_features=784, bias=True)
(12): Tanh()
)
)
31Under review as submission to TMLR
Discriminator(
(model): Sequential(
(0): Linear(in_features=784, out_features=512, bias=True)
(1): LeakyReLU(negative_slope=0.2, inplace)
(2): Linear(in_features=512, out_features=256, bias=True)
(3): LeakyReLU(negative_slope=0.2, inplace)
(4): Linear(in_features=256, out_features=1, bias=True)
)
)
Note that we control the parameterization of our GAN by modifying just the latent dimension. However,
since these networks are multi-layer, one could investigate the behavior of a GAN by varying the widths of
all the layers at once or even one layer at a time. This is an interesting topic which merits further exploration
in future work.
The networks are trained with a gradient penalty weight of λGP= 10. The pseudo-supervised sample pairs
…
